…
06/27 06:41:33 PM:    _text_field_embedder.token_embedder_elmo.char_conv_4.bias
06/27 06:41:33 PM:    _text_field_embedder.token_embedder_elmo.char_conv_4.weight
06/27 06:41:33 PM:    _text_field_embedder.token_embedder_elmo.char_conv_5.bias
06/27 06:41:33 PM:    _text_field_embedder.token_embedder_elmo.char_conv_5.weight
06/27 06:41:33 PM:    _text_field_embedder.token_embedder_elmo.char_conv_6.bias
06/27 06:41:33 PM:    _text_field_embedder.token_embedder_elmo.char_conv_6.weight
06/27 06:41:37 PM: MultiTaskModel(
  (sent_encoder): SentenceEncoder(
    (_text_field_embedder): BasicTextFieldEmbedder(
      (token_embedder_elmo): ElmoCharacterEncoder(
        (char_conv_0): Conv1d(16, 32, kernel_size=(1,), stride=(1,))
        (char_conv_1): Conv1d(16, 32, kernel_size=(2,), stride=(1,))
        (char_conv_2): Conv1d(16, 64, kernel_size=(3,), stride=(1,))
        (char_conv_3): Conv1d(16, 128, kernel_size=(4,), stride=(1,))
        (char_conv_4): Conv1d(16, 256, kernel_size=(5,), stride=(1,))
        (char_conv_5): Conv1d(16, 512, kernel_size=(6,), stride=(1,))
        (char_conv_6): Conv1d(16, 1024, kernel_size=(7,), stride=(1,))
        (_highways): Highway(
          (_layers): ModuleList(
            (0): Linear(in_features=2048, out_features=4096, bias=True)
            (1): Linear(in_features=2048, out_features=4096, bias=True)
          )
        )
        (_projection): Linear(in_features=2048, out_features=512, bias=True)
      )
    )
    (_highway_layer): TimeDistributed(
      (_module): Highway(
        (_layers): ModuleList(
          (0): Linear(in_features=512, out_features=1024, bias=True)
        )
      )
    )
    (_phrase_layer): PytorchSeq2SeqWrapper(
      (_module): LSTM(512, 512, num_layers=2, batch_first=True, bidirectional=1)
    )
    (_dropout): Dropout(p=0.2)
  )
  (sst_mdl): Sequential(
    (0): Dropout(p=0.2)
    (1): Linear(in_features=1536, out_features=256, bias=True)
    (2): Tanh()
    (3): LayerNorm(torch.Size([256]), eps=1e-05, elementwise_affine=True)
    (4): Dropout(p=0.2)
    (5): Linear(in_features=256, out_features=2, bias=True)
  )
)
06/27 06:41:37 PM: 	Finished building model in 9.543s
06/27 06:41:37 PM: Will run the following steps:
Training model on tasks: sst
Re-training model for individual eval tasks
Evaluating model on tasks: sst
06/27 06:41:37 PM: Training...
06/27 06:41:37 PM: patience = 10
06/27 06:41:37 PM: num_epochs = 10000
06/27 06:41:37 PM: max_vals = 100
06/27 06:41:37 PM: cuda_device = 0
…
