…
06/29 03:49:24 PM:    _text_field_embedder.token_embedder_elmo.char_conv_4.bias
06/29 03:49:24 PM:    _text_field_embedder.token_embedder_elmo.char_conv_4.weight
06/29 03:49:24 PM:    _text_field_embedder.token_embedder_elmo.char_conv_5.bias
06/29 03:49:24 PM:    _text_field_embedder.token_embedder_elmo.char_conv_5.weight
06/29 03:49:24 PM:    _text_field_embedder.token_embedder_elmo.char_conv_6.bias
06/29 03:49:24 PM:    _text_field_embedder.token_embedder_elmo.char_conv_6.weight
06/29 03:49:28 PM: MultiTaskModel(
  (sent_encoder): SentenceEncoder(
    (_text_field_embedder): BasicTextFieldEmbedder(
      (token_embedder_elmo): ElmoCharacterEncoder(
        (char_conv_0): Conv1d(16, 32, kernel_size=(1,), stride=(1,))
        (char_conv_1): Conv1d(16, 32, kernel_size=(2,), stride=(1,))
        (char_conv_2): Conv1d(16, 64, kernel_size=(3,), stride=(1,))
        (char_conv_3): Conv1d(16, 128, kernel_size=(4,), stride=(1,))
        (char_conv_4): Conv1d(16, 256, kernel_size=(5,), stride=(1,))
        (char_conv_5): Conv1d(16, 512, kernel_size=(6,), stride=(1,))
        (char_conv_6): Conv1d(16, 1024, kernel_size=(7,), stride=(1,))
        (_highways): Highway(
          (_layers): ModuleList(
            (0): Linear(in_features=2048, out_features=4096, bias=True)
            (1): Linear(in_features=2048, out_features=4096, bias=True)
          )
        )
        (_projection): Linear(in_features=2048, out_features=512, bias=True)
      )
    )
    (_highway_layer): TimeDistributed(
      (_module): Highway(
        (_layers): ModuleList()
      )
    )
    (_phrase_layer): StackedSelfAttentionEncoder(
      (feedforward_0): FeedForward(
        (_linear_layers): ModuleList(
          (0): Linear(in_features=512, out_features=2048, bias=True)
          (1): Linear(in_features=2048, out_features=512, bias=True)
        )
        (_dropout): ModuleList(
          (0): Dropout(p=0.1)
          (1): Dropout(p=0.1)
        )
      )
      (feedforward_layer_norm_0): LayerNorm()
      (self_attention_0): MultiHeadSelfAttention(
        (_combined_projection): Linear(in_features=512, out_features=192, bias=True)
        (_output_projection): Linear(in_features=64, out_features=512, bias=True)
        (_attention_dropout): Dropout(p=0.1)
      )
      (layer_norm_0): LayerNorm()
      (feedforward_1): FeedForward(
        (_linear_layers): ModuleList(
          (0): Linear(in_features=512, out_features=2048, bias=True)
          (1): Linear(in_features=2048, out_features=512, bias=True)
        )
        (_dropout): ModuleList(
          (0): Dropout(p=0.1)
          (1): Dropout(p=0.1)
        )
      )
      (feedforward_layer_norm_1): LayerNorm()
      (self_attention_1): MultiHeadSelfAttention(
        (_combined_projection): Linear(in_features=512, out_features=192, bias=True)
        (_output_projection): Linear(in_features=64, out_features=512, bias=True)
        (_attention_dropout): Dropout(p=0.1)
      )
      (layer_norm_1): LayerNorm()
      (dropout): Dropout(p=0.2)
    )
    (_dropout): Dropout(p=0.2)
  )
  (sst_mdl): SingleClassifier(
    (pooler): Pooler(
      (project): Linear(in_features=1024, out_features=512, bias=True)
    )
    (classifier): Classifier(
      (classifier): Sequential(
        (0): Dropout(p=0.2)
        (1): Linear(in_features=512, out_features=512, bias=True)
        (2): Tanh()
        (3): LayerNorm(torch.Size([512]), eps=1e-05, elementwise_affine=True)
        (4): Dropout(p=0.2)
        (5): Linear(in_features=512, out_features=2, bias=True)
      )
    )
  )
)
06/29 03:49:28 PM: Total number of parameters: 23294434
06/29 03:49:28 PM: Number of trainable parameters: 5256578
06/29 03:49:28 PM: 	Finished building model in 8.606s
06/29 03:49:28 PM: Will run the following steps:
Training model on tasks: sst
Re-training model for individual eval tasks
Evaluating model on tasks: sst
06/29 03:49:28 PM: Training...
…
