…
06/28 08:05:29 PM:    _text_field_embedder.token_embedder_elmo.char_conv_4.weight
06/28 08:05:29 PM:    _text_field_embedder.token_embedder_elmo.char_conv_5.bias
06/28 08:05:29 PM:    _text_field_embedder.token_embedder_elmo.char_conv_5.weight
06/28 08:05:29 PM:    _text_field_embedder.token_embedder_elmo.char_conv_6.bias
06/28 08:05:29 PM:    _text_field_embedder.token_embedder_elmo.char_conv_6.weight
06/28 08:05:29 PM:    _text_field_embedder.token_embedder_words.weight
06/28 08:05:33 PM: MultiTaskModel(
  (sent_encoder): SentenceEncoder(
    (_text_field_embedder): BasicTextFieldEmbedder(
      (token_embedder_words): Embedding()
      (token_embedder_elmo): ElmoCharacterEncoder(
        (char_conv_0): Conv1d(16, 32, kernel_size=(1,), stride=(1,))
        (char_conv_1): Conv1d(16, 32, kernel_size=(2,), stride=(1,))
        (char_conv_2): Conv1d(16, 64, kernel_size=(3,), stride=(1,))
        (char_conv_3): Conv1d(16, 128, kernel_size=(4,), stride=(1,))
        (char_conv_4): Conv1d(16, 256, kernel_size=(5,), stride=(1,))
        (char_conv_5): Conv1d(16, 512, kernel_size=(6,), stride=(1,))
        (char_conv_6): Conv1d(16, 1024, kernel_size=(7,), stride=(1,))
        (_highways): Highway(
          (_layers): ModuleList(
            (0): Linear(in_features=2048, out_features=4096, bias=True)
            (1): Linear(in_features=2048, out_features=4096, bias=True)
          )
        )
        (_projection): Linear(in_features=2048, out_features=512, bias=True)
      )
    )
    (_highway_layer): TimeDistributed(
      (_module): Highway(
        (_layers): ModuleList(
          (0): Linear(in_features=812, out_features=1624, bias=True)
        )
      )
    )
    (_phrase_layer): StackedSelfAttentionEncoder(
      (feedforward_0): FeedForward(
        (_linear_layers): ModuleList(
          (0): Linear(in_features=812, out_features=2048, bias=True)
          (1): Linear(in_features=2048, out_features=512, bias=True)
        )
        (_dropout): ModuleList(
          (0): Dropout(p=0.1)
          (1): Dropout(p=0.1)
        )
      )
      (feedforward_layer_norm_0): LayerNorm()
      (self_attention_0): MultiHeadSelfAttention(
        (_combined_projection): Linear(in_features=512, out_features=192, bias=True)
        (_output_projection): Linear(in_features=64, out_features=512, bias=True)
        (_attention_dropout): Dropout(p=0.1)
      )
      (layer_norm_0): LayerNorm()
      (feedforward_1): FeedForward(
        (_linear_layers): ModuleList(
          (0): Linear(in_features=512, out_features=2048, bias=True)
          (1): Linear(in_features=2048, out_features=512, bias=True)
        )
        (_dropout): ModuleList(
          (0): Dropout(p=0.1)
          (1): Dropout(p=0.1)
        )
      )
      (feedforward_layer_norm_1): LayerNorm()
      (self_attention_1): MultiHeadSelfAttention(
        (_combined_projection): Linear(in_features=512, out_features=192, bias=True)
        (_output_projection): Linear(in_features=64, out_features=512, bias=True)
        (_attention_dropout): Dropout(p=0.1)
      )
      (layer_norm_1): LayerNorm()
      (feedforward_2): FeedForward(
        (_linear_layers): ModuleList(
          (0): Linear(in_features=512, out_features=2048, bias=True)
          (1): Linear(in_features=2048, out_features=512, bias=True)
        )
        (_dropout): ModuleList(
          (0): Dropout(p=0.1)
          (1): Dropout(p=0.1)
        )
      )
      (feedforward_layer_norm_2): LayerNorm()
      (self_attention_2): MultiHeadSelfAttention(
        (_combined_projection): Linear(in_features=512, out_features=192, bias=True)
        (_output_projection): Linear(in_features=64, out_features=512, bias=True)
        (_attention_dropout): Dropout(p=0.1)
      )
      (layer_norm_2): LayerNorm()
      (feedforward_3): FeedForward(
        (_linear_layers): ModuleList(
          (0): Linear(in_features=512, out_features=2048, bias=True)
          (1): Linear(in_features=2048, out_features=512, bias=True)
        )
        (_dropout): ModuleList(
          (0): Dropout(p=0.1)
          (1): Dropout(p=0.1)
        )
      )
      (feedforward_layer_norm_3): LayerNorm()
      (self_attention_3): MultiHeadSelfAttention(
        (_combined_projection): Linear(in_features=512, out_features=192, bias=True)
        (_output_projection): Linear(in_features=64, out_features=512, bias=True)
        (_attention_dropout): Dropout(p=0.1)
      )
      (layer_norm_3): LayerNorm()
      (feedforward_4): FeedForward(
        (_linear_layers): ModuleList(
          (0): Linear(in_features=512, out_features=2048, bias=True)
          (1): Linear(in_features=2048, out_features=512, bias=True)
        )
        (_dropout): ModuleList(
          (0): Dropout(p=0.1)
          (1): Dropout(p=0.1)
        )
      )
      (feedforward_layer_norm_4): LayerNorm()
      (self_attention_4): MultiHeadSelfAttention(
        (_combined_projection): Linear(in_features=512, out_features=192, bias=True)
        (_output_projection): Linear(in_features=64, out_features=512, bias=True)
        (_attention_dropout): Dropout(p=0.1)
      )
      (layer_norm_4): LayerNorm()
      (feedforward_5): FeedForward(
        (_linear_layers): ModuleList(
          (0): Linear(in_features=512, out_features=2048, bias=True)
          (1): Linear(in_features=2048, out_features=512, bias=True)
        )
        (_dropout): ModuleList(
          (0): Dropout(p=0.1)
          (1): Dropout(p=0.1)
        )
      )
      (feedforward_layer_norm_5): LayerNorm()
      (self_attention_5): MultiHeadSelfAttention(
        (_combined_projection): Linear(in_features=512, out_features=192, bias=True)
        (_output_projection): Linear(in_features=64, out_features=512, bias=True)
        (_attention_dropout): Dropout(p=0.1)
      )
      (layer_norm_5): LayerNorm()
      (dropout): Dropout(p=0.2)
    )
    (_dropout): Dropout(p=0.2)
  )
  (sst_mdl): Sequential(
    (0): Dropout(p=0.2)
    (1): Linear(in_features=1324, out_features=256, bias=True)
    (2): Tanh()
    (3): LayerNorm(torch.Size([256]), eps=1e-05, elementwise_affine=True)
    (4): Dropout(p=0.2)
    (5): Linear(in_features=256, out_features=2, bias=True)
  )
)
06/28 08:05:33 PM: 	Finished building model in 8.712s
06/28 08:05:33 PM: Will run the following steps:
Training model on tasks: sst
Re-training model for individual eval tasks
Evaluating model on tasks: sst
06/28 08:05:33 PM: Training...
06/28 08:05:33 PM: patience = 10
06/28 08:05:33 PM: num_epochs = 10000
06/28 08:05:33 PM: max_vals = 100
06/28 08:05:33 PM: cuda_device = 1
…
