…
[0;32m    109 [0;31m    [0mpdb[0m[0;34m.[0m[0mset_trace[0m[0;34m([0m[0;34m)[0m[0;34m[0m[0m
[0m[0;32m--> 110 [0;31m    [0mbuild_modules[0m[0;34m([0m[0mtasks[0m[0;34m,[0m [0mmodel[0m[0;34m,[0m [0md_sent[0m[0;34m,[0m [0mvocab[0m[0;34m,[0m [0membedder[0m[0;34m,[0m [0margs[0m[0;34m)[0m[0;34m[0m[0m
[0m[0;32m    111 [0;31m    [0;32mif[0m [0margs[0m[0;34m.[0m[0mcuda[0m [0;34m>=[0m [0;36m0[0m[0;34m:[0m[0;34m[0m[0m
[0m
ipdb> MultiTaskModel(
  (sent_encoder): SentenceEncoder(
    (_text_field_embedder): BasicTextFieldEmbedder(
      (token_embedder_elmo): ElmoCharacterEncoder(
        (char_conv_0): Conv1d(16, 32, kernel_size=(1,), stride=(1,))
        (char_conv_1): Conv1d(16, 32, kernel_size=(2,), stride=(1,))
        (char_conv_2): Conv1d(16, 64, kernel_size=(3,), stride=(1,))
        (char_conv_3): Conv1d(16, 128, kernel_size=(4,), stride=(1,))
        (char_conv_4): Conv1d(16, 256, kernel_size=(5,), stride=(1,))
        (char_conv_5): Conv1d(16, 512, kernel_size=(6,), stride=(1,))
        (char_conv_6): Conv1d(16, 1024, kernel_size=(7,), stride=(1,))
        (_highways): Highway(
          (_layers): ModuleList(
            (0): Linear(in_features=2048, out_features=4096, bias=True)
            (1): Linear(in_features=2048, out_features=4096, bias=True)
          )
        )
        (_projection): Linear(in_features=2048, out_features=512, bias=True)
      )
    )
    (_highway_layer): TimeDistributed(
      (_module): Highway(
        (_layers): ModuleList()
      )
    )
    (_phrase_layer): StackedSelfAttentionEncoder(
      (feedforward_0): FeedForward(
        (_linear_layers): ModuleList(
          (0): Linear(in_features=512, out_features=2048, bias=True)
          (1): Linear(in_features=2048, out_features=512, bias=True)
        )
        (_dropout): ModuleList(
          (0): Dropout(p=0.1)
          (1): Dropout(p=0.1)
        )
      )
      (feedforward_layer_norm_0): LayerNorm()
      (self_attention_0): MultiHeadSelfAttention(
        (_combined_projection): Linear(in_features=512, out_features=192, bias=True)
        (_output_projection): Linear(in_features=64, out_features=512, bias=True)
        (_attention_dropout): Dropout(p=0.1)
      )
      (layer_norm_0): LayerNorm()
      (feedforward_1): FeedForward(
        (_linear_layers): ModuleList(
          (0): Linear(in_features=512, out_features=2048, bias=True)
          (1): Linear(in_features=2048, out_features=512, bias=True)
        )
        (_dropout): ModuleList(
          (0): Dropout(p=0.1)
          (1): Dropout(p=0.1)
        )
      )
      (feedforward_layer_norm_1): LayerNorm()
      (self_attention_1): MultiHeadSelfAttention(
        (_combined_projection): Linear(in_features=512, out_features=192, bias=True)
        (_output_projection): Linear(in_features=64, out_features=512, bias=True)
        (_attention_dropout): Dropout(p=0.1)
      )
      (layer_norm_1): LayerNorm()
      (dropout): Dropout(p=0.2)
    )
    (_dropout): Dropout(p=0.2)
  )
)
ipdb> ['__call__', '__class__', '__delattr__', '__dict__', '__dir__', '__doc__', '__eq__', '__format__', '__ge__', '__getattr__', '__getattribute__', '__gt__', '__hash__', '__init__', '__init_subclass__', '__le__', '__lt__', '__module__', '__ne__', '__new__', '__reduce__', '__reduce_ex__', '__repr__', '__setattr__', '__se
…
atches', 'eval', 'extra_repr', 'float', 'forward', 'half', 'load_state_dict', 'modules', 'named_children', 'named_modules', 'named_parameters', 'parameters', 'register_backward_hook', 'register_buffer', 'register_forward_hook', 'register_forward_pre_hook', 'register_parameter', 'sent_encoder', 'share_memory', 'state_dict', 'to', 'train', 'training', 'type', 'vocab', 'zero_grad']
ipdb> <bound method Module.named_modules of MultiTaskModel(
  (sent_encoder): SentenceEncoder(
    (_text_field_embedder): BasicTextFieldEmbedder(
      (token_embedder_elmo): ElmoCharacterEncoder(
        (char_conv_0): Conv1d(16, 32, kernel_size=(1,), stride=(1,))
        (char_conv_1): Conv1d(16, 32, kernel_size=(2,), stride=(1,))
        (char_conv_2): Conv1d(16, 64, kernel_size=(3,), stride=(1,))
        (char_conv_3): Conv1d(16, 128, kernel_size=(4,), stride=(1,))
        (char_conv_4): Conv1d(16, 256, kernel_size=(5,), stride=(1,))
        (char_conv_5): Conv1d(16, 512, kernel_size=(6,), stride=(1,))
        (char_conv_6): Conv1d(16, 1024, kernel_size=(7,), stride=(1,))
        (_highways): Highway(
          (_layers): ModuleList(
            (0): Linear(in_features=2048, out_features=4096, bias=True)
            (1): Linear(in_features=2048, out_features=4096, bias=True)
          )
        )
        (_projection): Linear(in_features=2048, out_features=512, bias=True)
      )
    )
    (_highway_layer): TimeDistributed(
      (_module): Highway(
        (_layers): ModuleList()
      )
    )
    (_phrase_layer): StackedSelfAttentionEncoder(
      (feedforward_0): FeedForward(
        (_linear_layers): ModuleList(
          (0): Linear(in_features=512, out_features=2048, bias=True)
          (1): Linear(in_features=2048, out_features=512, bias=True)
        )
        (_dropout): ModuleList(
          (0): Dropout(p=0.1)
          (1): Dropout(p=0.1)
        )
      )
      (feedforward_layer_norm_0): LayerNorm()
      (self_attention_0): MultiHeadSelfAttention(
        (_combined_projection): Linear(in_features=512, out_features=192, bias=True)
        (_output_projection): Linear(in_features=64, out_features=512, bias=True)
        (_attention_dropout): Dropout(p=0.1)
      )
      (layer_norm_0): LayerNorm()
      (feedforward_1): FeedForward(
        (_linear_layers): ModuleList(
          (0): Linear(in_features=512, out_features=2048, bias=True)
          (1): Linear(in_features=2048, out_features=512, bias=True)
        )
        (_dropout): ModuleList(
          (0): Dropout(p=0.1)
          (1): Dropout(p=0.1)
        )
      )
      (feedforward_layer_norm_1): LayerNorm()
      (self_attention_1): MultiHeadSelfAttention(
        (_combined_projection): Linear(in_features=512, out_features=192, bias=True)
        (_output_projection): Linear(in_features=64, out_features=512, bias=True)
        (_attention_dropout): Dropout(p=0.1)
      )
      (layer_norm_1): LayerNorm()
      (dropout): Dropout(p=0.2)
    )
    (_dropout): Dropout(p=0.2)
  )
)>
ipdb> <bound method Module.modules of MultiTaskModel(
  (sent_encoder): SentenceEncoder(
    (_text_field_embedder): BasicTextFieldEmbedder(
      (token_embedder_elmo): ElmoCharacterEncoder(
        (char_conv_0): Conv1d(16, 32, kernel_size=(1,), stride=(1,))
        (char_conv_1): Conv1d(16, 32, kernel_size=(2,), stride=(1,))
        (char_conv_2): Conv1d(16, 64, kernel_size=(3,), stride=(1,))
        (char_conv_3): Conv1d(16, 128, kernel_size=(4,), stride=(1,))
        (char_conv_4): Conv1d(16, 256, kernel_size=(5,), stride=(1,))
        (char_conv_5): Conv1d(16, 512, kernel_size=(6,), stride=(1,))
        (char_conv_6): Conv1d(16, 1024, kernel_size=(7,), stride=(1,))
        (_highways): Highway(
          (_layers): ModuleList(
            (0): Linear(in_features=2048, out_features=4096, bias=True)
            (1): Linear(in_features=2048, out_features=4096, bias=True)
          )
        )
        (_projection): Linear(in_features=2048, out_features=512, bias=True)
      )
    )
    (_highway_layer): TimeDistributed(
      (_module): Highway(
        (_layers): ModuleList()
      )
    )
    (_phrase_layer): StackedSelfAttentionEncoder(
      (feedforward_0): FeedForward(
        (_linear_layers): ModuleList(
          (0): Linear(in_features=512, out_features=2048, bias=True)
          (1): Linear(in_features=2048, out_features=512, bias=True)
        )
        (_dropout): ModuleList(
          (0): Dropout(p=0.1)
          (1): Dropout(p=0.1)
        )
      )
      (feedforward_layer_norm_0): LayerNorm()
      (self_attention_0): MultiHeadSelfAttention(
        (_combined_projection): Linear(in_features=512, out_features=192, bias=True)
        (_output_projection): Linear(in_features=64, out_features=512, bias=True)
        (_attention_dropout): Dropout(p=0.1)
      )
      (layer_norm_0): LayerNorm()
      (feedforward_1): FeedForward(
        (_linear_layers): ModuleList(
          (0): Linear(in_features=512, out_features=2048, bias=True)
          (1): Linear(in_features=2048, out_features=512, bias=True)
        )
        (_dropout): ModuleList(
          (0): Dropout(p=0.1)
          (1): Dropout(p=0.1)
        )
      )
      (feedforward_layer_norm_1): LayerNorm()
      (self_attention_1): MultiHeadSelfAttention(
        (_combined_projection): Linear(in_features=512, out_features=192, bias=True)
        (_output_projection): Linear(in_features=64, out_features=512, bias=True)
        (_attention_dropout): Dropout(p=0.1)
      )
      (layer_norm_1): LayerNorm()
      (dropout): Dropout(p=0.2)
    )
    (_dropout): Dropout(p=0.2)
  )
)>
ipdb> *** SyntaxError: unexpected EOF while parsing
ipdb> sent_encoder
ipdb> sent_encoder
ipdb> 1
2
3
ipdb> 0 MultiTaskModel(
  (sent_encoder): SentenceEncoder(
    (_text_field_embedder): BasicTextFieldEmbedder(
      (token_embedder_elmo): ElmoCharacterEncoder(
        (char_conv_0): Conv1d(16, 32, kernel_size=(1,), stride=(1,))
        (char_conv_1): Conv1d(16, 32, kernel_size=(2,), stride=(1,))
        (char_conv_2): Conv1d(16, 64, kernel_size=(3,), stride=(1,))
        (char_conv_3): Conv1d(16, 128, kernel_size=(4,), stride=(1,))
        (char_conv_4): Conv1d(16, 256, kernel_size=(5,), stride=(1,))
        (char_conv_5): Conv1d(16, 512, kernel_size=(6,), stride=(1,))
        (char_conv_6): Conv1d(16, 1024, kernel_size=(7,), stride=(1,))
        (_highways): Highway(
          (_layers): ModuleList(
            (0): Linear(in_features=2048, out_features=4096, bias=True)
            (1): Linear(in_features=2048, out_features=4096, bias=True)
          )
        )
        (_projection): Linear(in_features=2048, out_features=512, bias=True)
      )
    )
    (_highway_layer): TimeDistributed(
      (_module): Highway(
        (_layers): ModuleList()
      )
    )
    (_phrase_layer): StackedSelfAttentionEncoder(
      (feedforward_0): FeedForward(
        (_linear_layers): ModuleList(
          (0): Linear(in_features=512, out_features=2048, bias=True)
          (1): Linear(in_features=2048, out_features=512, bias=True)
        )
        (_dropout): ModuleList(
          (0): Dropout(p=0.1)
          (1): Dropout(p=0.1)
        )
      )
      (feedforward_layer_norm_0): LayerNorm()
      (self_attention_0): MultiHeadSelfAttention(
        (_combined_projection): Linear(in_features=512, out_features=192, bias=True)
        (_output_projection): Linear(in_features=64, out_features=512, bias=True)
        (_attention_dropout): Dropout(p=0.1)
      )
      (layer_norm_0): LayerNorm()
      (feedforward_1): FeedForward(
        (_linear_layers): ModuleList(
          (0): Linear(in_features=512, out_features=2048, bias=True)
          (1): Linear(in_features=2048, out_features=512, bias=True)
        )
        (_dropout): ModuleList(
          (0): Dropout(p=0.1)
          (1): Dropout(p=0.1)
        )
      )
      (feedforward_layer_norm_1): LayerNorm()
      (self_attention_1): MultiHeadSelfAttention(
        (_combined_projection): Linear(in_features=512, out_features=192, bias=True)
        (_output_projection): Linear(in_features=64, out_features=512, bias=True)
        (_attention_dropout): Dropout(p=0.1)
      )
      (layer_norm_1): LayerNorm()
      (dropout): Dropout(p=0.2)
    )
    (_dropout): Dropout(p=0.2)
  )
)
1 SentenceEncoder(
  (_text_field_embedder): BasicTextFieldEmbedder(
    (token_embedder_elmo): ElmoCharacterEncoder(
      (char_conv_0): Conv1d(16, 32, kernel_size=(1,), stride=(1,))
      (char_conv_1): Conv1d(16, 32, kernel_size=(2,), stride=(1,))
      (char_conv_2): Conv1d(16, 64, kernel_size=(3,), stride=(1,))
      (char_conv_3): Conv1d(16, 128, kernel_size=(4,), stride=(1,))
      (char_conv_4): Conv1d(16, 256, kernel_size=(5,), stride=(1,))
      (char_conv_5): Conv1d(16, 512, kernel_size=(6,), stride=(1,))
      (char_conv_6): Conv1d(16, 1024, kernel_size=(7,), stride=(1,))
      (_highways): Highway(
        (_layers): ModuleList(
          (0): Linear(in_features=2048, out_features=4096, bias=True)
          (1): Linear(in_features=2048, out_features=4096, bias=True)
        )
      )
      (_projection): Linear(in_features=2048, out_features=512, bias=True)
    )
  )
  (_highway_layer): TimeDistributed(
    (_module): Highway(
      (_layers): ModuleList()
    )
  )
  (_phrase_layer): StackedSelfAttentionEncoder(
    (feedforward_0): FeedForward(
      (_linear_layers): ModuleList(
        (0): Linear(in_features=512, out_features=2048, bias=True)
        (1): Linear(in_features=2048, out_features=512, bias=True)
      )
      (_dropout): ModuleList(
        (0): Dropout(p=0.1)
        (1): Dropout(p=0.1)
      )
    )
    (feedforward_layer_norm_0): LayerNorm()
    (self_attention_0): MultiHeadSelfAttention(
      (_combined_projection): Linear(in_features=512, out_features=192, bias=True)
      (_output_projection): Linear(in_features=64, out_features=512, bias=True)
      (_attention_dropout): Dropout(p=0.1)
    )
    (layer_norm_0): LayerNorm()
    (feedforward_1): FeedForward(
      (_linear_layers): ModuleList(
        (0): Linear(in_features=512, out_features=2048, bias=True)
        (1): Linear(in_features=2048, out_features=512, bias=True)
      )
      (_dropout): ModuleList(
        (0): Dropout(p=0.1)
        (1): Dropout(p=0.1)
      )
    )
    (feedforward_layer_norm_1): LayerNorm()
    (self_attention_1): MultiHeadSelfAttention(
      (_combined_projection): Linear(in_features=512, out_features=192, bias=True)
      (_output_projection): Linear(in_features=64, out_features=512, bias=True)
      (_attention_dropout): Dropout(p=0.1)
    )
    (layer_norm_1): LayerNorm()
    (dropout): Dropout(p=0.2)
  )
  (_dropout): Dropout(p=0.2)
)
2 BasicTextFieldEmbedder(
  (token_embedder_elmo): ElmoCharacterEncoder(
    (char_conv_0): Conv1d(16, 32, kernel_size=(1,), stride=(1,))
    (char_conv_1): Conv1d(16, 32, kernel_size=(2,), stride=(1,))
    (char_conv_2): Conv1d(16, 64, kernel_size=(3,), stride=(1,))
    (char_conv_3): Conv1d(16, 128, kernel_size=(4,), stride=(1,))
    (char_conv_4): Conv1d(16, 256, kernel_size=(5,), stride=(1,))
    (char_conv_5): Conv1d(16, 512, kernel_size=(6,), stride=(1,))
    (char_conv_6): Conv1d(16, 1024, kernel_size=(7,), stride=(1,))
    (_highways): Highway(
      (_layers): ModuleList(
        (0): Linear(in_features=2048, out_features=4096, bias=True)
        (1): Linear(in_features=2048, out_features=4096, bias=True)
      )
    )
    (_projection): Linear(in_features=2048, out_features=512, bias=True)
  )
)
3 ElmoCharacterEncoder(
  (char_conv_0): Conv1d(16, 32, kernel_size=(1,), stride=(1,))
  (char_conv_1): Conv1d(16, 32, kernel_size=(2,), stride=(1,))
  (char_conv_2): Conv1d(16, 64, kernel_size=(3,), stride=(1,))
  (char_conv_3): Conv1d(16, 128, kernel_size=(4,), stride=(1,))
  (char_conv_4): Conv1d(16, 256, kernel_size=(5,), stride=(1,))
  (char_conv_5): Conv1d(16, 512, kernel_size=(6,), stride=(1,))
  (char_conv_6): Conv1d(16, 1024, kernel_size=(7,), stride=(1,))
  (_highways): Highway(
    (_layers): ModuleList(
      (0): Linear(in_features=2048, out_features=4096, bias=True)
      (1): Linear(in_features=2048, out_features=4096, bias=True)
    )
  )
  (_projection): Linear(in_features=2048, out_features=512, bias=True)
)
4 Conv1d(16, 32, kernel_size=(1,), stride=(1,))
5 Conv1d(16, 32, kernel_size=(2,), stride=(1,))
6 Conv1d(16, 64, kernel_size=(3,), stride=(1,))
7 Conv1d(16, 128, kernel_size=(4,), stride=(1,))
8 Conv1d(16, 256, kernel_size=(5,), stride=(1,))
9 Conv1d(16, 512, kernel_size=(6,), stride=(1,))
10 Conv1d(16, 1024, kernel_size=(7,), stride=(1,))
11 Highway(
  (_layers): ModuleList(
    (0): Linear(in_features=2048, out_features=4096, bias=True)
    (1): Linear(in_features=2048, out_features=4096, bias=True)
  )
)
12 ModuleList(
  (0): Linear(in_features=2048, out_features=4096, bias=True)
  (1): Linear(in_features=2048, out_features=4096, bias=True)
)
13 Linear(in_features=2048, out_features=4096, bias=True)
14 Linear(in_features=2048, out_features=4096, bias=True)
15 Linear(in_features=2048, out_features=512, bias=True)
16 TimeDistributed(
  (_module): Highway(
    (_layers): ModuleList()
  )
)
17 Highway(
  (_layers): ModuleList()
)
18 ModuleList()
19 StackedSelfAttentionEncoder(
  (feedforward_0): FeedForward(
    (_linear_layers): ModuleList(
      (0): Linear(in_features=512, out_features=2048, bias=True)
      (1): Linear(in_features=2048, out_features=512, bias=True)
    )
    (_dropout): ModuleList(
      (0): Dropout(p=0.1)
      (1): Dropout(p=0.1)
    )
  )
  (feedforward_layer_norm_0): LayerNorm()
  (self_attention_0): MultiHeadSelfAttention(
    (_combined_projection): Linear(in_features=512, out_features=192, bias=True)
    (_output_projection): Linear(in_features=64, out_features=512, bias=True)
    (_attention_dropout): Dropout(p=0.1)
  )
  (layer_norm_0): LayerNorm()
  (feedforward_1): FeedForward(
    (_linear_layers): ModuleList(
      (0): Linear(in_features=512, out_features=2048, bias=True)
      (1): Linear(in_features=2048, out_features=512, bias=True)
    )
    (_dropout): ModuleList(
      (0): Dropout(p=0.1)
      (1): Dropout(p=0.1)
    )
  )
  (feedforward_layer_norm_1): LayerNorm()
  (self_attention_1): MultiHeadSelfAttention(
    (_combined_projection): Linear(in_features=512, out_features=192, bias=True)
    (_output_projection): Linear(in_features=64, out_features=512, bias=True)
    (_attention_dropout): Dropout(p=0.1)
  )
  (layer_norm_1): LayerNorm()
  (dropout): Dropout(p=0.2)
)
20 FeedForward(
  (_linear_layers): ModuleList(
    (0): Linear(in_features=512, out_features=2048, bias=True)
    (1): Linear(in_features=2048, out_features=512, bias=True)
  )
  (_dropout): ModuleList(
    (0): Dropout(p=0.1)
    (1): Dropout(p=0.1)
  )
)
21 ModuleList(
  (0): Linear(in_features=512, out_features=2048, bias=True)
  (1): Linear(in_features=2048, out_features=512, bias=True)
)
22 Linear(in_features=512, out_features=2048, bias=True)
23 Linear(in_features=2048, out_features=512, bias=True)
24 ModuleList(
  (0): Dropout(p=0.1)
  (1): Dropout(p=0.1)
)
25 Dropout(p=0.1)
26 Dropout(p=0.1)
27 LayerNorm()
28 MultiHeadSelfAttention(
  (_combined_projection): Linear(in_features=512, out_features=192, bias=True)
  (_output_projection): Linear(in_features=64, out_features=512, bias=True)
  (_attention_dropout): Dropout(p=0.1)
)
29 Linear(in_features=512, out_features=192, bias=True)
30 Linear(in_features=64, out_features=512, bias=True)
31 Dropout(p=0.1)
32 LayerNorm()
33 FeedForward(
  (_linear_layers): ModuleList(
    (0): Linear(in_features=512, out_features=2048, bias=True)
    (1): Linear(in_features=2048, out_features=512, bias=True)
  )
  (_dropout): ModuleList(
    (0): Dropout(p=0.1)
    (1): Dropout(p=0.1)
  )
)
34 ModuleList(
  (0): Linear(in_features=512, out_features=2048, bias=True)
  (1): Linear(in_features=2048, out_features=512, bias=True)
)
35 Linear(in_features=512, out_features=2048, bias=True)
36 Linear(in_features=2048, out_features=512, bias=True)
37 ModuleList(
  (0): Dropout(p=0.1)
  (1): Dropout(p=0.1)
)
38 Dropout(p=0.1)
39 Dropout(p=0.1)
40 LayerNorm()
41 MultiHeadSelfAttention(
  (_combined_projection): Linear(in_features=512, out_features=192, bias=True)
  (_output_projection): Linear(in_features=64, out_features=512, bias=True)
  (_attention_dropout): Dropout(p=0.1)
)
42 Linear(in_features=512, out_features=192, bias=True)
43 Linear(in_features=64, out_features=512, bias=True)
44 Dropout(p=0.1)
45 LayerNorm()
46 Dropout(p=0.2)
47 Dropout(p=0.2)
ipdb> *** SyntaxError: invalid syntax
ipdb> 06/29 11:01:19 PM: Fatal error in main():
Traceback (most recent call last):
  File "src/main.py", line 184, in <module>
…
