…
06/27 06:26:56 PM:    _text_field_embedder.token_embedder_elmo.char_conv_4.weight
06/27 06:26:56 PM:    _text_field_embedder.token_embedder_elmo.char_conv_5.bias
06/27 06:26:56 PM:    _text_field_embedder.token_embedder_elmo.char_conv_5.weight
06/27 06:26:56 PM:    _text_field_embedder.token_embedder_elmo.char_conv_6.bias
06/27 06:26:56 PM:    _text_field_embedder.token_embedder_elmo.char_conv_6.weight
06/27 06:26:56 PM:    _text_field_embedder.token_embedder_words.weight
06/27 06:27:00 PM: MultiTaskModel(
  (sent_encoder): SentenceEncoder(
    (_text_field_embedder): BasicTextFieldEmbedder(
      (token_embedder_words): Embedding()
      (token_embedder_chars): TokenCharactersEncoder(
        (_embedding): TimeDistributed(
          (_module): Embedding()
        )
        (_encoder): TimeDistributed(
          (_module): CnnEncoder(
            (_activation): ReLU()
            (conv_layer_0): Conv1d(100, 100, kernel_size=(2,), stride=(1,))
            (conv_layer_1): Conv1d(100, 100, kernel_size=(3,), stride=(1,))
            (conv_layer_2): Conv1d(100, 100, kernel_size=(4,), stride=(1,))
            (conv_layer_3): Conv1d(100, 100, kernel_size=(5,), stride=(1,))
            (projection_layer): Linear(in_features=400, out_features=100, bias=True)
          )
        )
        (_dropout): Dropout(p=0.2)
      )
      (token_embedder_elmo): ElmoCharacterEncoder(
        (char_conv_0): Conv1d(16, 32, kernel_size=(1,), stride=(1,))
        (char_conv_1): Conv1d(16, 32, kernel_size=(2,), stride=(1,))
        (char_conv_2): Conv1d(16, 64, kernel_size=(3,), stride=(1,))
        (char_conv_3): Conv1d(16, 128, kernel_size=(4,), stride=(1,))
        (char_conv_4): Conv1d(16, 256, kernel_size=(5,), stride=(1,))
        (char_conv_5): Conv1d(16, 512, kernel_size=(6,), stride=(1,))
        (char_conv_6): Conv1d(16, 1024, kernel_size=(7,), stride=(1,))
        (_highways): Highway(
          (_layers): ModuleList(
            (0): Linear(in_features=2048, out_features=4096, bias=True)
            (1): Linear(in_features=2048, out_features=4096, bias=True)
          )
        )
        (_projection): Linear(in_features=2048, out_features=512, bias=True)
      )
    )
    (_highway_layer): TimeDistributed(
      (_module): Highway(
        (_layers): ModuleList()
      )
    )
    (_phrase_layer): PytorchSeq2SeqWrapper(
      (_module): LSTM(912, 128, batch_first=True, bidirectional=1)
    )
    (_dropout): Dropout(p=0.2)
  )
  (sst_mdl): Sequential(
    (0): Dropout(p=0.2)
    (1): Linear(in_features=1168, out_features=32, bias=True)
    (2): Tanh()
    (3): LayerNorm(torch.Size([32]), eps=1e-05, elementwise_affine=True)
    (4): Dropout(p=0.2)
    (5): Linear(in_features=32, out_features=2, bias=True)
  )
  (pair_encoder): SimplePairEncoder()
  (mrpc_mdl): Sequential(
    (0): Dropout(p=0.2)
    (1): Linear(in_features=4672, out_features=32, bias=True)
    (2): Tanh()
    (3): LayerNorm(torch.Size([32]), eps=1e-05, elementwise_affine=True)
    (4): Dropout(p=0.2)
    (5): Linear(in_features=32, out_features=2, bias=True)
  )
)
06/27 06:27:00 PM: 	Finished building model in 8.485s
06/27 06:27:00 PM: Will run the following steps:
Training model on tasks: sst
Re-training model for individual eval tasks
Evaluating model on tasks: mrpc
06/27 06:27:00 PM: Training...
06/27 06:27:00 PM: patience = 10
06/27 06:27:00 PM: num_epochs = 10000
06/27 06:27:00 PM: max_vals = 10
06/27 06:27:00 PM: cuda_device = 0
…
