…
04/19 11:03:56 AM: dropout = 0.2
04/19 11:03:56 AM: cls_loss_fn = 
04/19 11:03:56 AM: cls_span_pooling = x,y
04/19 11:03:56 AM: edgeprobe_cnn_context = 0
04/19 11:03:56 AM: use_classifier = wsj
04/19 11:03:56 AM: 	Task 'wsj' params: {
  "cls_type": "mlp",
  "d_hid": 512,
  "d_proj": 512,
  "shared_pair_attn": 0,
  "attn": 1,
  "d_hid_attn": 512,
  "dropout": 0.2,
  "cls_loss_fn": "",
  "cls_span_pooling": "x,y",
  "edgeprobe_cnn_context": 0,
  "use_classifier": "wsj"
}
04/19 11:04:06 AM: MultiTaskModel(
  (sent_encoder): SentenceEncoder(
    (_text_field_embedder): ElmoTextFieldEmbedder(
      (token_embedder_words): Embedding()
    )
    (_highway_layer): TimeDistributed(
      (_module): Highway(
        (_layers): ModuleList()
      )
    )
    (_phrase_layer): PRPN(
      (drop): Dropout(p=0.2)
      (idrop): Dropout(p=0.2)
      (rdrop): Dropout(p=0.0)
      (embedder): ElmoTextFieldEmbedder(
        (token_embedder_words): Embedding()
      )
      (emb): Embedding(10002, 200)
      (parser): ParsingNetwork(
        (drop): Dropout(p=0.2)
        (gate): Sequential(
          (0): Dropout(p=0.2)
          (1): Conv1d(200, 400, kernel_size=(6,), stride=(1,))
          (2): BatchNorm1d(400, eps=1e-05, momentum=0.1, affine=True, track_running_stats=True)
          (3): ReLU()
          (4): Dropout(p=0.2)
          (5): Conv1d(400, 2, kernel_size=(1,), stride=(1,), groups=2)
          (6): Sigmoid()
        )
      )
      (reader): ModuleList(
        (0): ReadingNetwork(
          (drop): Dropout(p=0.2)
          (memory_rnn): LSTMCell(
            200, 400
            (ih): Sequential(
              (0): Linear(in_features=200, out_features=1600, bias=True)
              (1): LayerNorm()
            )
            (hh): Sequential(
              (0): Linear(in_features=400, out_features=1600, bias=True)
              (1): LayerNorm()
            )
            (c_norm): LayerNorm()
            (drop): Dropout(p=0)
          )
          (projector_summ): Sequential(
            (0): Dropout(p=0.2)
            (1): Linear(in_features=600, out_features=400, bias=True)
            (2): Dropout(p=0.2)
          )
        )
        (1): ReadingNetwork(
          (drop): Dropout(p=0.2)
          (memory_rnn): LSTMCell(
            400, 400
            (ih): Sequential(
              (0): Linear(in_features=400, out_features=1600, bias=True)
              (1): LayerNorm()
            )
            (hh): Sequential(
              (0): Linear(in_features=400, out_features=1600, bias=True)
              (1): LayerNorm()
            )
            (c_norm): LayerNorm()
            (drop): Dropout(p=0)
          )
          (projector_summ): Sequential(
            (0): Dropout(p=0.2)
            (1): Linear(in_features=800, out_features=400, bias=True)
            (2): Dropout(p=0.2)
          )
        )
      )
      (predictor): PredictNetwork(
        (drop): Dropout(p=0.2)
        (projector_pred): Sequential(
          (0): Dropout(p=0.2)
          (1): Linear(in_features=400, out_features=400, bias=True)
          (2): Dropout(p=0.2)
        )
        (ffd): Sequential(
          (0): Dropout(p=0.2)
          (1): Linear(in_features=800, out_features=200, bias=True)
          (2): BatchNorm1d(200, eps=1e-05, momentum=0.1, affine=True, track_running_stats=True)
          (3): Tanh()
        )
      )
    )
    (_dropout): Dropout(p=0.2)
  )
  (wsj_hid2voc): Linear(in_features=200, out_features=10002, bias=True)
  (wsj_mdl): Linear(in_features=200, out_features=10002, bias=True)
)
04/19 11:04:06 AM: >> Trainable param sent_encoder._phrase_layer.emb.weight: torch.Size([10002, 200]) = 2000400
04/19 11:04:06 AM: >> Trainable param sent_encoder._phrase_layer.parser.gate.1.weight: torch.Size([400, 200, 6]) = 480000
04/19 11:04:06 AM: >> Trainable param sent_encoder._phrase_layer.parser.gate.1.bias: torch.Size([400]) = 400
04/19 11:04:06 AM: >> Trainable param sent_encoder._phrase_layer.parser.gate.2.weight: torch.Size([400]) = 400
…
