…
04/19 02:11:40 PM: dropout = 0.2
04/19 02:11:40 PM: cls_loss_fn = 
04/19 02:11:40 PM: cls_span_pooling = x,y
04/19 02:11:40 PM: edgeprobe_cnn_context = 0
04/19 02:11:40 PM: use_classifier = wsj
04/19 02:11:40 PM: 	Task 'wsj' params: {
  "cls_type": "mlp",
  "d_hid": 512,
  "d_proj": 512,
  "shared_pair_attn": 0,
  "attn": 1,
  "d_hid_attn": 512,
  "dropout": 0.2,
  "cls_loss_fn": "",
  "cls_span_pooling": "x,y",
  "edgeprobe_cnn_context": 0,
  "use_classifier": "wsj"
}
04/19 02:11:45 PM: MultiTaskModel(
  (sent_encoder): SentenceEncoder(
    (_text_field_embedder): ElmoTextFieldEmbedder(
      (token_embedder_words): Embedding()
    )
    (_highway_layer): TimeDistributed(
      (_module): Highway(
        (_layers): ModuleList()
      )
    )
    (_phrase_layer): PRPN(
      (drop): Dropout(p=0.7)
      (idrop): Dropout(p=0.5)
      (rdrop): Dropout(p=0.5)
      (embedder): ElmoTextFieldEmbedder(
        (token_embedder_words): Embedding()
      )
      (emb): Embedding(10002, 800)
      (parser): ParsingNetwork(
        (drop): Dropout(p=0.5)
        (gate): Sequential(
          (0): Dropout(p=0.5)
          (1): Conv1d(800, 1200, kernel_size=(6,), stride=(1,))
          (2): BatchNorm1d(1200, eps=1e-05, momentum=0.1, affine=True, track_running_stats=True)
          (3): ReLU()
          (4): Dropout(p=0.5)
          (5): Conv1d(1200, 2, kernel_size=(1,), stride=(1,), groups=2)
          (6): Sigmoid()
        )
      )
      (reader): ModuleList(
        (0): ReadingNetwork(
          (drop): Dropout(p=0.7)
          (memory_rnn): LSTMCell(
            800, 1200
            (ih): Sequential(
              (0): Linear(in_features=800, out_features=4800, bias=True)
              (1): LayerNorm()
            )
            (hh): Sequential(
              (0): Linear(in_features=1200, out_features=4800, bias=True)
              (1): LayerNorm()
            )
            (c_norm): LayerNorm()
            (drop): Dropout(p=0)
          )
          (projector_summ): Sequential(
            (0): Dropout(p=0.5)
            (1): Linear(in_features=2000, out_features=1200, bias=True)
            (2): Dropout(p=0.5)
          )
        )
        (1): ReadingNetwork(
          (drop): Dropout(p=0.5)
          (memory_rnn): LSTMCell(
            1200, 1200
            (ih): Sequential(
              (0): Linear(in_features=1200, out_features=4800, bias=True)
              (1): LayerNorm()
            )
            (hh): Sequential(
              (0): Linear(in_features=1200, out_features=4800, bias=True)
              (1): LayerNorm()
            )
            (c_norm): LayerNorm()
            (drop): Dropout(p=0)
          )
          (projector_summ): Sequential(
            (0): Dropout(p=0.5)
            (1): Linear(in_features=2400, out_features=1200, bias=True)
            (2): Dropout(p=0.5)
          )
        )
      )
      (predictor): PredictNetwork(
        (drop): Dropout(p=0.5)
        (projector_pred): Sequential(
          (0): Dropout(p=0.5)
          (1): Linear(in_features=1200, out_features=1200, bias=True)
          (2): Dropout(p=0.5)
        )
        (ffd): Sequential(
          (0): Dropout(p=0.5)
          (1): Linear(in_features=2400, out_features=800, bias=True)
          (2): BatchNorm1d(800, eps=1e-05, momentum=0.1, affine=True, track_running_stats=True)
          (3): Tanh()
        )
      )
    )
    (_dropout): Dropout(p=0.7)
  )
  (wsj_hid2voc): Linear(in_features=800, out_features=10002, bias=True)
  (wsj_mdl): Linear(in_features=800, out_features=10002, bias=True)
)
04/19 02:11:45 PM: >> Trainable param sent_encoder._phrase_layer.emb.weight: torch.Size([10002, 800]) = 8001600
04/19 02:11:45 PM: >> Trainable param sent_encoder._phrase_layer.parser.gate.1.weight: torch.Size([1200, 800, 6]) = 5760000
04/19 02:11:45 PM: >> Trainable param sent_encoder._phrase_layer.parser.gate.1.bias: torch.Size([1200]) = 1200
04/19 02:11:45 PM: >> Trainable param sent_encoder._phrase_layer.parser.gate.2.weight: torch.Size([1200]) = 1200
…
04/19 02:24:07 PM: edgeprobe_cnn_context = 0
04/19 02:24:07 PM: use_classifier = toronto_lm
04/19 02:24:07 PM: 	Task 'toronto_lm' params: {
  "cls_type": "mlp",
  "d_hid": 512,
  "d_proj": 512,
  "shared_pair_attn": 0,
  "attn": 1,
  "d_hid_attn": 512,
  "dropout": 0.2,
  "cls_loss_fn": "",
  "cls_span_pooling": "x,y",
  "edgeprobe_cnn_context": 0,
  "use_classifier": "toronto_lm"
}
04/19 02:24:08 PM: Update 1067: task wsj, batch 67 (1067): perplexity: 271.3224, wsj_loss: 5.6033 ||
04/19 02:24:11 PM: MultiTaskModel(
  (sent_encoder): SentenceEncoder(
    (_text_field_embedder): ElmoTextFieldEmbedder(
      (token_embedder_words): Embedding()
    )
    (_highway_layer): TimeDistributed(
      (_module): Highway(
        (_layers): ModuleList()
      )
    )
    (_phrase_layer): PRPN(
      (drop): Dropout(p=0.2)
      (idrop): Dropout(p=0.2)
      (rdrop): Dropout(p=0.0)
      (embedder): ElmoTextFieldEmbedder(
        (token_embedder_words): Embedding()
      )
      (emb): Embedding(30002, 200)
      (parser): ParsingNetwork(
        (drop): Dropout(p=0.2)
        (gate): Sequential(
          (0): Dropout(p=0.2)
          (1): Conv1d(200, 400, kernel_size=(6,), stride=(1,))
          (2): BatchNorm1d(400, eps=1e-05, momentum=0.1, affine=True, track_running_stats=True)
          (3): ReLU()
          (4): Dropout(p=0.2)
          (5): Conv1d(400, 2, kernel_size=(1,), stride=(1,), groups=2)
          (6): Sigmoid()
        )
      )
      (reader): ModuleList(
        (0): ReadingNetwork(
          (drop): Dropout(p=0.2)
          (memory_rnn): LSTMCell(
            200, 400
            (ih): Sequential(
              (0): Linear(in_features=200, out_features=1600, bias=True)
              (1): LayerNorm()
            )
            (hh): Sequential(
              (0): Linear(in_features=400, out_features=1600, bias=True)
              (1): LayerNorm()
            )
            (c_norm): LayerNorm()
            (drop): Dropout(p=0)
          )
          (projector_summ): Sequential(
            (0): Dropout(p=0.2)
            (1): Linear(in_features=600, out_features=400, bias=True)
            (2): Dropout(p=0.2)
          )
        )
        (1): ReadingNetwork(
          (drop): Dropout(p=0.2)
          (memory_rnn): LSTMCell(
            400, 400
            (ih): Sequential(
              (0): Linear(in_features=400, out_features=1600, bias=True)
              (1): LayerNorm()
            )
            (hh): Sequential(
              (0): Linear(in_features=400, out_features=1600, bias=True)
              (1): LayerNorm()
            )
            (c_norm): LayerNorm()
            (drop): Dropout(p=0)
          )
          (projector_summ): Sequential(
            (0): Dropout(p=0.2)
            (1): Linear(in_features=800, out_features=400, bias=True)
            (2): Dropout(p=0.2)
          )
        )
      )
      (predictor): PredictNetwork(
        (drop): Dropout(p=0.2)
        (projector_pred): Sequential(
          (0): Dropout(p=0.2)
          (1): Linear(in_features=400, out_features=400, bias=True)
          (2): Dropout(p=0.2)
        )
        (ffd): Sequential(
          (0): Dropout(p=0.2)
          (1): Linear(in_features=800, out_features=200, bias=True)
          (2): BatchNorm1d(200, eps=1e-05, momentum=0.1, affine=True, track_running_stats=True)
          (3): Tanh()
        )
      )
    )
    (_dropout): Dropout(p=0.2)
  )
  (toronto_lm_hid2voc): Linear(in_features=200, out_features=30002, bias=True)
  (toronto_lm_mdl): Linear(in_features=200, out_features=30002, bias=True)
  (wsj_hid2voc): Linear(in_features=200, out_features=30002, bias=True)
  (wsj_mdl): Linear(in_features=200, out_features=30002, bias=True)
)
04/19 02:24:11 PM: >> Trainable param sent_encoder._phrase_layer.emb.weight: torch.Size([30002, 200]) = 6000400
04/19 02:24:11 PM: >> Trainable param sent_encoder._phrase_layer.parser.gate.1.weight: torch.Size([400, 200, 6]) = 480000
04/19 02:24:11 PM: >> Trainable param sent_encoder._phrase_layer.parser.gate.1.bias: torch.Size([400]) = 400
04/19 02:24:11 PM: >> Trainable param sent_encoder._phrase_layer.parser.gate.2.weight: torch.Size([400]) = 400
…
